…
I0114 13:30:57.781600  2210 net.cpp:296] The NetState phase (0) differed from the phase (1) specified by a rule in layer data
I0114 13:30:57.781633  2210 net.cpp:296] The NetState phase (0) differed from the phase (1) specified by a rule in layer accuracy
I0114 13:30:57.781884  2210 net.cpp:53] Initializing net from parameters: 
name: "CaffeNet"
state {
  phase: TRAIN
  level: 0
  stage: ""
}
layer {
  name: "data"
  type: "Data"
  top: "data"
  top: "label"
  include {
    phase: TRAIN
  }
  transform_param {
    mirror: true
    crop_size: 227
    mean_file: "input/mean.binaryproto"
  }
  data_param {
    source: "train_lmdb"
    batch_size: 1
    backend: LMDB
  }
}
layer {
  name: "conv1"
  type: "Convolution"
  bottom: "data"
  top: "conv1"
  param {
    lr_mult: 1
    decay_mult: 1
  }
  param {
    lr_mult: 2
    decay_mult: 0
  }
  convolution_param {
    num_output: 96
    kernel_size: 11
    stride: 4
    weight_filler {
      type: "gaussian"
      std: 0.01
    }
    bias_filler {
      type: "constant"
      value: 0
    }
  }
}
layer {
  name: "relu1"
  type: "ReLU"
  bottom: "conv1"
  top: "conv1"
}
layer {
  name: "pool1"
  type: "Pooling"
  bottom: "conv1"
  top: "pool1"
  pooling_param {
    pool: MAX
    kernel_size: 3
    stride: 2
  }
}
layer {
  name: "norm1"
  type: "LRN"
  bottom: "pool1"
  top: "norm1"
  lrn_param {
    local_size: 5
    alpha: 0.0001
    beta: 0.75
  }
}
layer {
  name: "conv2"
  type: "Convolution"
  bottom: "norm1"
  top: "conv2"
  param {
    lr_mult: 1
    decay_mult: 1
  }
  param {
    lr_mult: 2
    decay_mult: 0
  }
  convolution_param {
    num_output: 256
    pad: 2
    kernel_size: 5
    group: 2
    weight_filler {
      type: "gaussian"
      std: 0.01
    }
    bias_filler {
      type: "constant"
      value: 1
    }
  }
}
layer {
  name: "relu2"
  type: "ReLU"
  bottom: "conv2"
  top: "conv2"
}
layer {
  name: "pool2"
  type: "Pooling"
  bottom: "conv2"
  top: "pool2"
  pooling_param {
    pool: MAX
    kernel_size: 3
    stride: 2
  }
}
layer {
  name: "norm2"
  type: "LRN"
  bottom: "pool2"
  top: "norm2"
  lrn_param {
    local_size: 5
    alpha: 0.0001
    beta: 0.75
  }
}
layer {
  name: "conv3"
  type: "Convolution"
  bottom: "norm2"
  top: "conv3"
  param {
    lr_mult: 1
    decay_mult: 1
  }
  param {
    lr_mult: 2
    decay_mult: 0
  }
  convolution_param {
    num_output: 384
    pad: 1
    kernel_size: 3
    weight_filler {
      type: "gaussian"
      std: 0.01
    }
    bias_filler {
      type: "constant"
      value: 0
    }
  }
}
layer {
  name: "relu3"
  type: "ReLU"
  bottom: "conv3"
  top: "conv3"
}
layer {
  name: "conv4"
  type: "Convolution"
  bottom: "conv3"
  top: "conv4"
  param {
    lr_mult: 1
    decay_mult: 1
  }
  param {
    lr_mult: 2
    decay_mult: 0
  }
  convolution_param {
    num_output: 384
    pad: 1
    kernel_size: 3
    group: 2
    weight_filler {
      type: "gaussian"
      std: 0.01
    }
    bias_filler {
      type: "constant"
      value: 1
    }
  }
}
layer {
  name: "relu4"
  type: "ReLU"
  bottom: "conv4"
  top: "conv4"
}
layer {
  name: "conv5"
  type: "Convolution"
  bottom: "conv4"
  top: "conv5"
  param {
    lr_mult: 1
    decay_mult: 1
  }
  param {
    lr_mult: 2
    decay_mult: 0
  }
  convolution_param {
    num_output: 256
    pad: 1
    kernel_size: 3
    group: 2
    weight_filler {
      type: "gaussian"
      std: 0.01
    }
    bias_filler {
      type: "constant"
      value: 1
    }
  }
}
layer {
  name: "relu5"
  type: "ReLU"
  bottom: "conv5"
  top: "conv5"
}
layer {
  name: "pool5"
  type: "Pooling"
  bottom: "conv5"
  top: "pool5"
  pooling_param {
    pool: MAX
    kernel_size: 3
    stride: 2
  }
}
layer {
  name: "fc6"
  type: "InnerProduct"
  bottom: "pool5"
  top: "fc6"
  param {
    lr_mult: 1
    decay_mult: 1
  }
  param {
    lr_mult: 2
    decay_mult: 0
  }
  inner_product_param {
    num_output: 4096
    weight_filler {
      type: "gaussian"
      std: 0.005
    }
    bias_filler {
      type: "constant"
      value: 1
    }
  }
}
layer {
  name: "relu6"
  type: "ReLU"
  bottom: "fc6"
  top: "fc6"
}
layer {
  name: "drop6"
  type: "Dropout"
  bottom: "fc6"
  top: "fc6"
  dropout_param {
    dropout_ratio: 0.5
  }
}
layer {
  name: "fc7"
  type: "InnerProduct"
  bottom: "fc6"
  top: "fc7"
  param {
    lr_mult: 1
    decay_mult: 1
  }
  param {
    lr_mult: 2
    decay_mult: 0
  }
  inner_product_param {
    num_output: 4096
    weight_filler {
      type: "gaussian"
      std: 0.005
    }
    bias_filler {
      type: "constant"
      value: 1
    }
  }
}
layer {
  name: "relu7"
  type: "ReLU"
  bottom: "fc7"
  top: "fc7"
}
layer {
  name: "drop7"
  type: "Dropout"
  bottom: "fc7"
  top: "fc7"
  dropout_param {
    dropout_ratio: 0.5
  }
}
layer {
  name: "fc8"
  type: "InnerProduct"
  bottom: "fc7"
  top: "fc8"
  param {
    lr_mult: 1
    decay_mult: 1
  }
  param {
    lr_mult: 2
    decay_mult: 0
  }
  inner_product_param {
    num_output: 2
    weight_filler {
      type: "gaussian"
      std: 0.01
    }
    bias_filler {
      type: "constant"
      value: 0
    }
  }
}
layer {
  name: "loss"
  type: "SoftmaxWithLoss"
  bottom: "fc8"
  bottom: "label"
  top: "loss"
}
I0114 13:30:57.782034  2210 layer_factory.hpp:77] Creating layer data
I0114 13:30:57.782932  2210 db_lmdb.cpp:35] Opened lmdb train_lmdb
I0114 13:30:57.783089  2210 net.cpp:86] Creating Layer data
I0114 13:30:57.783107  2210 net.cpp:382] data -> data
I0114 13:30:57.783133  2210 net.cpp:382] data -> label
I0114 13:30:57.783165  2210 data_transformer.cpp:25] Loading mean file from: input/mean.binaryproto
I0114 13:30:57.789535  2210 data_layer.cpp:45] output data size: 1,3,227,227
I0114 13:30:57.793745  2210 net.cpp:124] Setting up data
I0114 13:30:57.793771  2210 net.cpp:131] Top shape: 1 3 227 227 (154587)
I0114 13:30:57.793781  2210 net.cpp:131] Top shape: 1 (1)
I0114 13:30:57.793786  2210 net.cpp:139] Memory required for data: 618352
I0114 13:30:57.793802  2210 layer_factory.hpp:77] Creating layer conv1
I0114 13:30:57.794008  2210 net.cpp:86] Creating Layer conv1
I0114 13:30:57.794020  2210 net.cpp:408] conv1 <- data
I0114 13:30:57.794037  2210 net.cpp:382] conv1 -> conv1
I0114 13:30:59.367089  2210 net.cpp:124] Setting up conv1
I0114 13:30:59.367126  2210 net.cpp:131] Top shape: 1 96 55 55 (290400)
I0114 13:30:59.367133  2210 net.cpp:139] Memory required for data: 1779952
I0114 13:30:59.367158  2210 layer_factory.hpp:77] Creating layer relu1
I0114 13:30:59.367172  2210 net.cpp:86] Creating Layer relu1
I0114 13:30:59.367178  2210 net.cpp:408] relu1 <- conv1
I0114 13:30:59.367188  2210 net.cpp:369] relu1 -> conv1 (in-place)
I0114 13:30:59.368214  2210 net.cpp:124] Setting up relu1
I0114 13:30:59.368233  2210 net.cpp:131] Top shape: 1 96 55 55 (290400)
I0114 13:30:59.368238  2210 net.cpp:139] Memory required for data: 2941552
I0114 13:30:59.368244  2210 layer_factory.hpp:77] Creating layer pool1
I0114 13:30:59.368260  2210 net.cpp:86] Creating Layer pool1
I0114 13:30:59.368265  2210 net.cpp:408] pool1 <- conv1
I0114 13:30:59.368273  2210 net.cpp:382] pool1 -> pool1
I0114 13:30:59.368350  2210 net.cpp:124] Setting up pool1
I0114 13:30:59.368361  2210 net.cpp:131] Top shape: 1 96 27 27 (69984)
I0114 13:30:59.368366  2210 net.cpp:139] Memory required for data: 3221488
I0114 13:30:59.368371  2210 layer_factory.hpp:77] Creating layer norm1
I0114 13:30:59.368386  2210 net.cpp:86] Creating Layer norm1
I0114 13:30:59.368391  2210 net.cpp:408] norm1 <- pool1
I0114 13:30:59.368397  2210 net.cpp:382] norm1 -> norm1
I0114 13:30:59.369423  2210 net.cpp:124] Setting up norm1
I0114 13:30:59.369460  2210 net.cpp:131] Top shape: 1 96 27 27 (69984)
I0114 13:30:59.369467  2210 net.cpp:139] Memory required for data: 3501424
I0114 13:30:59.369472  2210 layer_factory.hpp:77] Creating layer conv2
I0114 13:30:59.369488  2210 net.cpp:86] Creating Layer conv2
I0114 13:30:59.369493  2210 net.cpp:408] conv2 <- norm1
I0114 13:30:59.369503  2210 net.cpp:382] conv2 -> conv2
I0114 13:30:59.382344  2210 net.cpp:124] Setting up conv2
I0114 13:30:59.382375  2210 net.cpp:131] Top shape: 1 256 27 27 (186624)
I0114 13:30:59.382381  2210 net.cpp:139] Memory required for data: 4247920
I0114 13:30:59.382400  2210 layer_factory.hpp:77] Creating layer relu2
I0114 13:30:59.382411  2210 net.cpp:86] Creating Layer relu2
I0114 13:30:59.382416  2210 net.cpp:408] relu2 <- conv2
I0114 13:30:59.382424  2210 net.cpp:369] relu2 -> conv2 (in-place)
I0114 13:30:59.383451  2210 net.cpp:124] Setting up relu2
I0114 13:30:59.383471  2210 net.cpp:131] Top shape: 1 256 27 27 (186624)
I0114 13:30:59.383476  2210 net.cpp:139] Memory required for data: 4994416
I0114 13:30:59.383481  2210 layer_factory.hpp:77] Creating layer pool2
I0114 13:30:59.383491  2210 net.cpp:86] Creating Layer pool2
I0114 13:30:59.383496  2210 net.cpp:408] pool2 <- conv2
I0114 13:30:59.383507  2210 net.cpp:382] pool2 -> pool2
I0114 13:30:59.383576  2210 net.cpp:124] Setting up pool2
I0114 13:30:59.383586  2210 net.cpp:131] Top shape: 1 256 13 13 (43264)
I0114 13:30:59.383599  2210 net.cpp:139] Memory required for data: 5167472
I0114 13:30:59.383605  2210 layer_factory.hpp:77] Creating layer norm2
I0114 13:30:59.383620  2210 net.cpp:86] Creating Layer norm2
I0114 13:30:59.383625  2210 net.cpp:408] norm2 <- pool2
I0114 13:30:59.383632  2210 net.cpp:382] norm2 -> norm2
I0114 13:30:59.384376  2210 net.cpp:124] Setting up norm2
I0114 13:30:59.384394  2210 net.cpp:131] Top shape: 1 256 13 13 (43264)
I0114 13:30:59.384399  2210 net.cpp:139] Memory required for data: 5340528
I0114 13:30:59.384404  2210 layer_factory.hpp:77] Creating layer conv3
I0114 13:30:59.384419  2210 net.cpp:86] Creating Layer conv3
I0114 13:30:59.384424  2210 net.cpp:408] conv3 <- norm2
I0114 13:30:59.384433  2210 net.cpp:382] conv3 -> conv3
I0114 13:30:59.403579  2210 net.cpp:124] Setting up conv3
I0114 13:30:59.403620  2210 net.cpp:131] Top shape: 1 384 13 13 (64896)
I0114 13:30:59.403627  2210 net.cpp:139] Memory required for data: 5600112
I0114 13:30:59.403642  2210 layer_factory.hpp:77] Creating layer relu3
I0114 13:30:59.403652  2210 net.cpp:86] Creating Layer relu3
I0114 13:30:59.403658  2210 net.cpp:408] relu3 <- conv3
I0114 13:30:59.403671  2210 net.cpp:369] relu3 -> conv3 (in-place)
I0114 13:30:59.404644  2210 net.cpp:124] Setting up relu3
I0114 13:30:59.404661  2210 net.cpp:131] Top shape: 1 384 13 13 (64896)
I0114 13:30:59.404666  2210 net.cpp:139] Memory required for data: 5859696
I0114 13:30:59.404671  2210 layer_factory.hpp:77] Creating layer conv4
I0114 13:30:59.404687  2210 net.cpp:86] Creating Layer conv4
I0114 13:30:59.404693  2210 net.cpp:408] conv4 <- conv3
I0114 13:30:59.404702  2210 net.cpp:382] conv4 -> conv4
I0114 13:30:59.423388  2210 net.cpp:124] Setting up conv4
I0114 13:30:59.423418  2210 net.cpp:131] Top shape: 1 384 13 13 (64896)
I0114 13:30:59.423424  2210 net.cpp:139] Memory required for data: 6119280
I0114 13:30:59.423435  2210 layer_factory.hpp:77] Creating layer relu4
I0114 13:30:59.423446  2210 net.cpp:86] Creating Layer relu4
I0114 13:30:59.423452  2210 net.cpp:408] relu4 <- conv4
I0114 13:30:59.423462  2210 net.cpp:369] relu4 -> conv4 (in-place)
I0114 13:30:59.424196  2210 net.cpp:124] Setting up relu4
I0114 13:30:59.424212  2210 net.cpp:131] Top shape: 1 384 13 13 (64896)
I0114 13:30:59.424217  2210 net.cpp:139] Memory required for data: 6378864
I0114 13:30:59.424222  2210 layer_factory.hpp:77] Creating layer conv5
I0114 13:30:59.424237  2210 net.cpp:86] Creating Layer conv5
I0114 13:30:59.424242  2210 net.cpp:408] conv5 <- conv4
I0114 13:30:59.424252  2210 net.cpp:382] conv5 -> conv5
I0114 13:30:59.438547  2210 net.cpp:124] Setting up conv5
I0114 13:30:59.438578  2210 net.cpp:131] Top shape: 1 256 13 13 (43264)
I0114 13:30:59.438608  2210 net.cpp:139] Memory required for data: 6551920
I0114 13:30:59.438629  2210 layer_factory.hpp:77] Creating layer relu5
I0114 13:30:59.438642  2210 net.cpp:86] Creating Layer relu5
I0114 13:30:59.438648  2210 net.cpp:408] relu5 <- conv5
I0114 13:30:59.438658  2210 net.cpp:369] relu5 -> conv5 (in-place)
I0114 13:30:59.439390  2210 net.cpp:124] Setting up relu5
I0114 13:30:59.439405  2210 net.cpp:131] Top shape: 1 256 13 13 (43264)
I0114 13:30:59.439410  2210 net.cpp:139] Memory required for data: 6724976
I0114 13:30:59.439415  2210 layer_factory.hpp:77] Creating layer pool5
I0114 13:30:59.439426  2210 net.cpp:86] Creating Layer pool5
I0114 13:30:59.439433  2210 net.cpp:408] pool5 <- conv5
I0114 13:30:59.439441  2210 net.cpp:382] pool5 -> pool5
I0114 13:30:59.439515  2210 net.cpp:124] Setting up pool5
I0114 13:30:59.439527  2210 net.cpp:131] Top shape: 1 256 6 6 (9216)
I0114 13:30:59.439530  2210 net.cpp:139] Memory required for data: 6761840
I0114 13:30:59.439535  2210 layer_factory.hpp:77] Creating layer fc6
I0114 13:30:59.439548  2210 net.cpp:86] Creating Layer fc6
I0114 13:30:59.439553  2210 net.cpp:408] fc6 <- pool5
I0114 13:30:59.439561  2210 net.cpp:382] fc6 -> fc6
I0114 13:30:59.987280  2210 net.cpp:124] Setting up fc6
I0114 13:30:59.987311  2210 net.cpp:131] Top shape: 1 4096 (4096)
I0114 13:30:59.987318  2210 net.cpp:139] Memory required for data: 6778224
I0114 13:30:59.987329  2210 layer_factory.hpp:77] Creating layer relu6
I0114 13:30:59.987344  2210 net.cpp:86] Creating Layer relu6
I0114 13:30:59.987349  2210 net.cpp:408] relu6 <- fc6
I0114 13:30:59.987359  2210 net.cpp:369] relu6 -> fc6 (in-place)
I0114 13:30:59.988452  2210 net.cpp:124] Setting up relu6
I0114 13:30:59.988472  2210 net.cpp:131] Top shape: 1 4096 (4096)
I0114 13:30:59.988477  2210 net.cpp:139] Memory required for data: 6794608
I0114 13:30:59.988482  2210 layer_factory.hpp:77] Creating layer drop6
I0114 13:30:59.988499  2210 net.cpp:86] Creating Layer drop6
I0114 13:30:59.988504  2210 net.cpp:408] drop6 <- fc6
I0114 13:30:59.988515  2210 net.cpp:369] drop6 -> fc6 (in-place)
I0114 13:30:59.988564  2210 net.cpp:124] Setting up drop6
I0114 13:30:59.988574  2210 net.cpp:131] Top shape: 1 4096 (4096)
I0114 13:30:59.988579  2210 net.cpp:139] Memory required for data: 6810992
I0114 13:30:59.988582  2210 layer_factory.hpp:77] Creating layer fc7
I0114 13:30:59.988593  2210 net.cpp:86] Creating Layer fc7
I0114 13:30:59.988598  2210 net.cpp:408] fc7 <- fc6
I0114 13:30:59.988608  2210 net.cpp:382] fc7 -> fc7
I0114 13:31:00.235540  2210 net.cpp:124] Setting up fc7
I0114 13:31:00.235569  2210 net.cpp:131] Top shape: 1 4096 (4096)
I0114 13:31:00.235574  2210 net.cpp:139] Memory required for data: 6827376
I0114 13:31:00.235585  2210 layer_factory.hpp:77] Creating layer relu7
I0114 13:31:00.235601  2210 net.cpp:86] Creating Layer relu7
I0114 13:31:00.235607  2210 net.cpp:408] relu7 <- fc7
I0114 13:31:00.235618  2210 net.cpp:369] relu7 -> fc7 (in-place)
I0114 13:31:00.236397  2210 net.cpp:124] Setting up relu7
I0114 13:31:00.236413  2210 net.cpp:131] Top shape: 1 4096 (4096)
I0114 13:31:00.236416  2210 net.cpp:139] Memory required for data: 6843760
I0114 13:31:00.236421  2210 layer_factory.hpp:77] Creating layer drop7
I0114 13:31:00.236433  2210 net.cpp:86] Creating Layer drop7
I0114 13:31:00.236438  2210 net.cpp:408] drop7 <- fc7
I0114 13:31:00.236445  2210 net.cpp:369] drop7 -> fc7 (in-place)
I0114 13:31:00.236492  2210 net.cpp:124] Setting up drop7
I0114 13:31:00.236501  2210 net.cpp:131] Top shape: 1 4096 (4096)
I0114 13:31:00.236506  2210 net.cpp:139] Memory required for data: 6860144
I0114 13:31:00.236510  2210 layer_factory.hpp:77] Creating layer fc8
I0114 13:31:00.236519  2210 net.cpp:86] Creating Layer fc8
I0114 13:31:00.236524  2210 net.cpp:408] fc8 <- fc7
I0114 13:31:00.236533  2210 net.cpp:382] fc8 -> fc8
I0114 13:31:00.237915  2210 net.cpp:124] Setting up fc8
I0114 13:31:00.237932  2210 net.cpp:131] Top shape: 1 2 (2)
I0114 13:31:00.237937  2210 net.cpp:139] Memory required for data: 6860152
I0114 13:31:00.237963  2210 layer_factory.hpp:77] Creating layer loss
I0114 13:31:00.237973  2210 net.cpp:86] Creating Layer loss
I0114 13:31:00.237978  2210 net.cpp:408] loss <- fc8
I0114 13:31:00.237984  2210 net.cpp:408] loss <- label
I0114 13:31:00.237998  2210 net.cpp:382] loss -> loss
I0114 13:31:00.238016  2210 layer_factory.hpp:77] Creating layer loss
…
I0114 13:31:00.239540  2210 solver.cpp:190] Creating test net (#0) specified by net file: caffe.prototxt
I0114 13:31:00.239588  2210 net.cpp:296] The NetState phase (1) differed from the phase (0) specified by a rule in layer data
I0114 13:31:00.239830  2210 net.cpp:53] Initializing net from parameters: 
name: "CaffeNet"
state {
  phase: TEST
}
layer {
  name: "data"
  type: "Data"
  top: "data"
  top: "label"
  include {
    phase: TEST
  }
  transform_param {
    mirror: false
    crop_size: 227
    mean_file: "input/mean.binaryproto"
  }
  data_param {
    source: "test_lmdb"
    batch_size: 50
    backend: LMDB
  }
}
layer {
  name: "conv1"
  type: "Convolution"
  bottom: "data"
  top: "conv1"
  param {
    lr_mult: 1
    decay_mult: 1
  }
  param {
    lr_mult: 2
    decay_mult: 0
  }
  convolution_param {
    num_output: 96
    kernel_size: 11
    stride: 4
    weight_filler {
      type: "gaussian"
      std: 0.01
    }
    bias_filler {
      type: "constant"
      value: 0
    }
  }
}
layer {
  name: "relu1"
  type: "ReLU"
  bottom: "conv1"
  top: "conv1"
}
layer {
  name: "pool1"
  type: "Pooling"
  bottom: "conv1"
  top: "pool1"
  pooling_param {
    pool: MAX
    kernel_size: 3
    stride: 2
  }
}
layer {
  name: "norm1"
  type: "LRN"
  bottom: "pool1"
  top: "norm1"
  lrn_param {
    local_size: 5
    alpha: 0.0001
    beta: 0.75
  }
}
layer {
  name: "conv2"
  type: "Convolution"
  bottom: "norm1"
  top: "conv2"
  param {
    lr_mult: 1
    decay_mult: 1
  }
  param {
    lr_mult: 2
    decay_mult: 0
  }
  convolution_param {
    num_output: 256
    pad: 2
    kernel_size: 5
    group: 2
    weight_filler {
      type: "gaussian"
      std: 0.01
    }
    bias_filler {
      type: "constant"
      value: 1
    }
  }
}
layer {
  name: "relu2"
  type: "ReLU"
  bottom: "conv2"
  top: "conv2"
}
layer {
  name: "pool2"
  type: "Pooling"
  bottom: "conv2"
  top: "pool2"
  pooling_param {
    pool: MAX
    kernel_size: 3
    stride: 2
  }
}
layer {
  name: "norm2"
  type: "LRN"
  bottom: "pool2"
  top: "norm2"
  lrn_param {
    local_size: 5
    alpha: 0.0001
    beta: 0.75
  }
}
layer {
  name: "conv3"
  type: "Convolution"
  bottom: "norm2"
  top: "conv3"
  param {
    lr_mult: 1
    decay_mult: 1
  }
  param {
    lr_mult: 2
    decay_mult: 0
  }
  convolution_param {
    num_output: 384
    pad: 1
    kernel_size: 3
    weight_filler {
      type: "gaussian"
      std: 0.01
    }
    bias_filler {
      type: "constant"
      value: 0
    }
  }
}
layer {
  name: "relu3"
  type: "ReLU"
  bottom: "conv3"
  top: "conv3"
}
layer {
  name: "conv4"
  type: "Convolution"
  bottom: "conv3"
  top: "conv4"
  param {
    lr_mult: 1
    decay_mult: 1
  }
  param {
    lr_mult: 2
    decay_mult: 0
  }
  convolution_param {
    num_output: 384
    pad: 1
    kernel_size: 3
    group: 2
    weight_filler {
      type: "gaussian"
      std: 0.01
    }
    bias_filler {
      type: "constant"
      value: 1
    }
  }
}
layer {
  name: "relu4"
  type: "ReLU"
  bottom: "conv4"
  top: "conv4"
}
layer {
  name: "conv5"
  type: "Convolution"
  bottom: "conv4"
  top: "conv5"
  param {
    lr_mult: 1
    decay_mult: 1
  }
  param {
    lr_mult: 2
    decay_mult: 0
  }
  convolution_param {
    num_output: 256
    pad: 1
    kernel_size: 3
    group: 2
    weight_filler {
      type: "gaussian"
      std: 0.01
    }
    bias_filler {
      type: "constant"
      value: 1
    }
  }
}
layer {
  name: "relu5"
  type: "ReLU"
  bottom: "conv5"
  top: "conv5"
}
layer {
  name: "pool5"
  type: "Pooling"
  bottom: "conv5"
  top: "pool5"
  pooling_param {
    pool: MAX
    kernel_size: 3
    stride: 2
  }
}
layer {
  name: "fc6"
  type: "InnerProduct"
  bottom: "pool5"
  top: "fc6"
  param {
    lr_mult: 1
    decay_mult: 1
  }
  param {
    lr_mult: 2
    decay_mult: 0
  }
  inner_product_param {
    num_output: 4096
    weight_filler {
      type: "gaussian"
      std: 0.005
    }
    bias_filler {
      type: "constant"
      value: 1
    }
  }
}
layer {
  name: "relu6"
  type: "ReLU"
  bottom: "fc6"
  top: "fc6"
}
layer {
  name: "drop6"
  type: "Dropout"
  bottom: "fc6"
  top: "fc6"
  dropout_param {
    dropout_ratio: 0.5
  }
}
layer {
  name: "fc7"
  type: "InnerProduct"
  bottom: "fc6"
  top: "fc7"
  param {
    lr_mult: 1
    decay_mult: 1
  }
  param {
    lr_mult: 2
    decay_mult: 0
  }
  inner_product_param {
    num_output: 4096
    weight_filler {
      type: "gaussian"
      std: 0.005
    }
    bias_filler {
      type: "constant"
      value: 1
    }
  }
}
layer {
  name: "relu7"
  type: "ReLU"
  bottom: "fc7"
  top: "fc7"
}
layer {
  name: "drop7"
  type: "Dropout"
  bottom: "fc7"
  top: "fc7"
  dropout_param {
    dropout_ratio: 0.5
  }
}
layer {
  name: "fc8"
  type: "InnerProduct"
  bottom: "fc7"
  top: "fc8"
  param {
    lr_mult: 1
    decay_mult: 1
  }
  param {
    lr_mult: 2
    decay_mult: 0
  }
  inner_product_param {
    num_output: 2
    weight_filler {
      type: "gaussian"
      std: 0.01
    }
    bias_filler {
      type: "constant"
      value: 0
    }
  }
}
layer {
  name: "accuracy"
  type: "Accuracy"
  bottom: "fc8"
  bottom: "label"
  top: "accuracy"
  include {
    phase: TEST
  }
}
layer {
  name: "loss"
  type: "SoftmaxWithLoss"
  bottom: "fc8"
  bottom: "label"
  top: "loss"
}
I0114 13:31:00.239982  2210 layer_factory.hpp:77] Creating layer data
I0114 13:31:00.245242  2210 db_lmdb.cpp:35] Opened lmdb test_lmdb
I0114 13:31:00.245270  2210 net.cpp:86] Creating Layer data
I0114 13:31:00.245290  2210 net.cpp:382] data -> data
I0114 13:31:00.245304  2210 net.cpp:382] data -> label
I0114 13:31:00.245331  2210 data_transformer.cpp:25] Loading mean file from: input/mean.binaryproto
I0114 13:31:00.248462  2210 data_layer.cpp:45] output data size: 50,3,227,227
I0114 13:31:00.382824  2210 net.cpp:124] Setting up data
I0114 13:31:00.382858  2210 net.cpp:131] Top shape: 50 3 227 227 (7729350)
I0114 13:31:00.382866  2210 net.cpp:131] Top shape: 50 (50)
I0114 13:31:00.382871  2210 net.cpp:139] Memory required for data: 30917600
I0114 13:31:00.382879  2210 layer_factory.hpp:77] Creating layer label_data_1_split
I0114 13:31:00.382892  2210 net.cpp:86] Creating Layer label_data_1_split
I0114 13:31:00.382899  2210 net.cpp:408] label_data_1_split <- label
I0114 13:31:00.382908  2210 net.cpp:382] label_data_1_split -> label_data_1_split_0
I0114 13:31:00.382920  2210 net.cpp:382] label_data_1_split -> label_data_1_split_1
I0114 13:31:00.383174  2210 net.cpp:124] Setting up label_data_1_split
I0114 13:31:00.383198  2210 net.cpp:131] Top shape: 50 (50)
I0114 13:31:00.383204  2210 net.cpp:131] Top shape: 50 (50)
I0114 13:31:00.383208  2210 net.cpp:139] Memory required for data: 30918000
I0114 13:31:00.383214  2210 layer_factory.hpp:77] Creating layer conv1
I0114 13:31:00.383231  2210 net.cpp:86] Creating Layer conv1
I0114 13:31:00.383237  2210 net.cpp:408] conv1 <- data
I0114 13:31:00.383247  2210 net.cpp:382] conv1 -> conv1
I0114 13:31:00.409900  2210 net.cpp:124] Setting up conv1
I0114 13:31:00.409929  2210 net.cpp:131] Top shape: 50 96 55 55 (14520000)
I0114 13:31:00.409935  2210 net.cpp:139] Memory required for data: 88998000
I0114 13:31:00.409951  2210 layer_factory.hpp:77] Creating layer relu1
I0114 13:31:00.409962  2210 net.cpp:86] Creating Layer relu1
I0114 13:31:00.409968  2210 net.cpp:408] relu1 <- conv1
I0114 13:31:00.409976  2210 net.cpp:369] relu1 -> conv1 (in-place)
I0114 13:31:00.410605  2210 net.cpp:124] Setting up relu1
I0114 13:31:00.410622  2210 net.cpp:131] Top shape: 50 96 55 55 (14520000)
I0114 13:31:00.410629  2210 net.cpp:139] Memory required for data: 147078000
I0114 13:31:00.410634  2210 layer_factory.hpp:77] Creating layer pool1
I0114 13:31:00.410645  2210 net.cpp:86] Creating Layer pool1
I0114 13:31:00.410650  2210 net.cpp:408] pool1 <- conv1
I0114 13:31:00.410658  2210 net.cpp:382] pool1 -> pool1
I0114 13:31:00.410743  2210 net.cpp:124] Setting up pool1
I0114 13:31:00.410758  2210 net.cpp:131] Top shape: 50 96 27 27 (3499200)
I0114 13:31:00.410763  2210 net.cpp:139] Memory required for data: 161074800
I0114 13:31:00.410768  2210 layer_factory.hpp:77] Creating layer norm1
I0114 13:31:00.410775  2210 net.cpp:86] Creating Layer norm1
I0114 13:31:00.410780  2210 net.cpp:408] norm1 <- pool1
I0114 13:31:00.410787  2210 net.cpp:382] norm1 -> norm1
I0114 13:31:00.411554  2210 net.cpp:124] Setting up norm1
I0114 13:31:00.411571  2210 net.cpp:131] Top shape: 50 96 27 27 (3499200)
I0114 13:31:00.411576  2210 net.cpp:139] Memory required for data: 175071600
I0114 13:31:00.411581  2210 layer_factory.hpp:77] Creating layer conv2
I0114 13:31:00.411603  2210 net.cpp:86] Creating Layer conv2
I0114 13:31:00.411610  2210 net.cpp:408] conv2 <- norm1
I0114 13:31:00.411619  2210 net.cpp:382] conv2 -> conv2
I0114 13:31:00.420871  2230 data_layer.cpp:73] Restarting data prefetching from start.
I0114 13:31:00.425914  2230 data_layer.cpp:73] Restarting data prefetching from start.
I0114 13:31:00.427429  2210 net.cpp:124] Setting up conv2
I0114 13:31:00.427462  2210 net.cpp:131] Top shape: 50 256 27 27 (9331200)
I0114 13:31:00.427469  2210 net.cpp:139] Memory required for data: 212396400
I0114 13:31:00.427484  2210 layer_factory.hpp:77] Creating layer relu2
I0114 13:31:00.427500  2210 net.cpp:86] Creating Layer relu2
I0114 13:31:00.427506  2210 net.cpp:408] relu2 <- conv2
I0114 13:31:00.427515  2210 net.cpp:369] relu2 -> conv2 (in-place)
I0114 13:31:00.428301  2210 net.cpp:124] Setting up relu2
I0114 13:31:00.428320  2210 net.cpp:131] Top shape: 50 256 27 27 (9331200)
I0114 13:31:00.428325  2210 net.cpp:139] Memory required for data: 249721200
I0114 13:31:00.428330  2210 layer_factory.hpp:77] Creating layer pool2
I0114 13:31:00.428364  2210 net.cpp:86] Creating Layer pool2
I0114 13:31:00.428369  2210 net.cpp:408] pool2 <- conv2
I0114 13:31:00.428378  2210 net.cpp:382] pool2 -> pool2
I0114 13:31:00.428480  2210 net.cpp:124] Setting up pool2
I0114 13:31:00.428493  2210 net.cpp:131] Top shape: 50 256 13 13 (2163200)
I0114 13:31:00.428498  2210 net.cpp:139] Memory required for data: 258374000
I0114 13:31:00.428503  2210 layer_factory.hpp:77] Creating layer norm2
I0114 13:31:00.428514  2210 net.cpp:86] Creating Layer norm2
I0114 13:31:00.428519  2210 net.cpp:408] norm2 <- pool2
I0114 13:31:00.428525  2210 net.cpp:382] norm2 -> norm2
I0114 13:31:00.429333  2210 net.cpp:124] Setting up norm2
I0114 13:31:00.429352  2210 net.cpp:131] Top shape: 50 256 13 13 (2163200)
I0114 13:31:00.429358  2210 net.cpp:139] Memory required for data: 267026800
I0114 13:31:00.429363  2210 layer_factory.hpp:77] Creating layer conv3
I0114 13:31:00.429378  2210 net.cpp:86] Creating Layer conv3
I0114 13:31:00.429383  2210 net.cpp:408] conv3 <- norm2
I0114 13:31:00.429394  2210 net.cpp:382] conv3 -> conv3
I0114 13:31:00.477799  2230 data_layer.cpp:73] Restarting data prefetching from start.
I0114 13:31:00.479974  2210 net.cpp:124] Setting up conv3
I0114 13:31:00.480001  2210 net.cpp:131] Top shape: 50 384 13 13 (3244800)
I0114 13:31:00.480008  2210 net.cpp:139] Memory required for data: 280006000
I0114 13:31:00.480026  2210 layer_factory.hpp:77] Creating layer relu3
I0114 13:31:00.480039  2210 net.cpp:86] Creating Layer relu3
I0114 13:31:00.480046  2210 net.cpp:408] relu3 <- conv3
I0114 13:31:00.480057  2210 net.cpp:369] relu3 -> conv3 (in-place)
I0114 13:31:00.480844  2210 net.cpp:124] Setting up relu3
I0114 13:31:00.480861  2210 net.cpp:131] Top shape: 50 384 13 13 (3244800)
I0114 13:31:00.480866  2210 net.cpp:139] Memory required for data: 292985200
I0114 13:31:00.480872  2210 layer_factory.hpp:77] Creating layer conv4
I0114 13:31:00.480887  2210 net.cpp:86] Creating Layer conv4
I0114 13:31:00.480893  2210 net.cpp:408] conv4 <- conv3
I0114 13:31:00.480904  2210 net.cpp:382] conv4 -> conv4
I0114 13:31:00.482987  2230 data_layer.cpp:73] Restarting data prefetching from start.
I0114 13:31:00.488139  2230 data_layer.cpp:73] Restarting data prefetching from start.
I0114 13:31:00.508668  2210 net.cpp:124] Setting up conv4
I0114 13:31:00.508700  2210 net.cpp:131] Top shape: 50 384 13 13 (3244800)
I0114 13:31:00.508707  2210 net.cpp:139] Memory required for data: 305964400
I0114 13:31:00.508718  2210 layer_factory.hpp:77] Creating layer relu4
I0114 13:31:00.508729  2210 net.cpp:86] Creating Layer relu4
I0114 13:31:00.508735  2210 net.cpp:408] relu4 <- conv4
I0114 13:31:00.508744  2210 net.cpp:369] relu4 -> conv4 (in-place)
I0114 13:31:00.509531  2210 net.cpp:124] Setting up relu4
I0114 13:31:00.509548  2210 net.cpp:131] Top shape: 50 384 13 13 (3244800)
I0114 13:31:00.509553  2210 net.cpp:139] Memory required for data: 318943600
I0114 13:31:00.509560  2210 layer_factory.hpp:77] Creating layer conv5
I0114 13:31:00.509577  2210 net.cpp:86] Creating Layer conv5
I0114 13:31:00.509582  2210 net.cpp:408] conv5 <- conv4
I0114 13:31:00.509593  2210 net.cpp:382] conv5 -> conv5
I0114 13:31:00.539875  2230 data_layer.cpp:73] Restarting data prefetching from start.
I0114 13:31:00.545172  2230 data_layer.cpp:73] Restarting data prefetching from start.
I0114 13:31:00.546285  2210 net.cpp:124] Setting up conv5
I0114 13:31:00.546313  2210 net.cpp:131] Top shape: 50 256 13 13 (2163200)
I0114 13:31:00.546320  2210 net.cpp:139] Memory required for data: 327596400
I0114 13:31:00.546347  2210 layer_factory.hpp:77] Creating layer relu5
I0114 13:31:00.546371  2210 net.cpp:86] Creating Layer relu5
I0114 13:31:00.546383  2210 net.cpp:408] relu5 <- conv5
I0114 13:31:00.546397  2210 net.cpp:369] relu5 -> conv5 (in-place)
I0114 13:31:00.548727  2210 net.cpp:124] Setting up relu5
I0114 13:31:00.548748  2210 net.cpp:131] Top shape: 50 256 13 13 (2163200)
I0114 13:31:00.548753  2210 net.cpp:139] Memory required for data: 336249200
I0114 13:31:00.548758  2210 layer_factory.hpp:77] Creating layer pool5
I0114 13:31:00.548802  2210 net.cpp:86] Creating Layer pool5
I0114 13:31:00.548813  2210 net.cpp:408] pool5 <- conv5
I0114 13:31:00.548827  2210 net.cpp:382] pool5 -> pool5
I0114 13:31:00.548933  2210 net.cpp:124] Setting up pool5
I0114 13:31:00.548946  2210 net.cpp:131] Top shape: 50 256 6 6 (460800)
I0114 13:31:00.548954  2210 net.cpp:139] Memory required for data: 338092400
I0114 13:31:00.548959  2210 layer_factory.hpp:77] Creating layer fc6
I0114 13:31:00.548970  2210 net.cpp:86] Creating Layer fc6
I0114 13:31:00.548976  2210 net.cpp:408] fc6 <- pool5
I0114 13:31:00.548985  2210 net.cpp:382] fc6 -> fc6
I0114 13:31:00.627300  2230 data_layer.cpp:73] Restarting data prefetching from start.
I0114 13:31:00.632325  2230 data_layer.cpp:73] Restarting data prefetching from start.
I0114 13:31:00.637326  2230 data_layer.cpp:73] Restarting data prefetching from start.
I0114 13:31:01.101845  2210 net.cpp:124] Setting up fc6
I0114 13:31:01.101877  2210 net.cpp:131] Top shape: 50 4096 (204800)
I0114 13:31:01.101883  2210 net.cpp:139] Memory required for data: 338911600
I0114 13:31:01.101897  2210 layer_factory.hpp:77] Creating layer relu6
I0114 13:31:01.101910  2210 net.cpp:86] Creating Layer relu6
I0114 13:31:01.101917  2210 net.cpp:408] relu6 <- fc6
I0114 13:31:01.101927  2210 net.cpp:369] relu6 -> fc6 (in-place)
I0114 13:31:01.102751  2210 net.cpp:124] Setting up relu6
I0114 13:31:01.102771  2210 net.cpp:131] Top shape: 50 4096 (204800)
I0114 13:31:01.102777  2210 net.cpp:139] Memory required for data: 339730800
I0114 13:31:01.102782  2210 layer_factory.hpp:77] Creating layer drop6
I0114 13:31:01.102790  2210 net.cpp:86] Creating Layer drop6
I0114 13:31:01.102795  2210 net.cpp:408] drop6 <- fc6
I0114 13:31:01.102804  2210 net.cpp:369] drop6 -> fc6 (in-place)
I0114 13:31:01.102854  2210 net.cpp:124] Setting up drop6
I0114 13:31:01.102869  2210 net.cpp:131] Top shape: 50 4096 (204800)
I0114 13:31:01.102876  2210 net.cpp:139] Memory required for data: 340550000
I0114 13:31:01.102883  2210 layer_factory.hpp:77] Creating layer fc7
I0114 13:31:01.102901  2210 net.cpp:86] Creating Layer fc7
I0114 13:31:01.102910  2210 net.cpp:408] fc7 <- fc6
I0114 13:31:01.102921  2210 net.cpp:382] fc7 -> fc7
I0114 13:31:01.349015  2210 net.cpp:124] Setting up fc7
I0114 13:31:01.349050  2210 net.cpp:131] Top shape: 50 4096 (204800)
I0114 13:31:01.349056  2210 net.cpp:139] Memory required for data: 341369200
I0114 13:31:01.349068  2210 layer_factory.hpp:77] Creating layer relu7
I0114 13:31:01.349081  2210 net.cpp:86] Creating Layer relu7
I0114 13:31:01.349089  2210 net.cpp:408] relu7 <- fc7
I0114 13:31:01.349100  2210 net.cpp:369] relu7 -> fc7 (in-place)
I0114 13:31:01.349911  2210 net.cpp:124] Setting up relu7
I0114 13:31:01.349931  2210 net.cpp:131] Top shape: 50 4096 (204800)
I0114 13:31:01.349938  2210 net.cpp:139] Memory required for data: 342188400
I0114 13:31:01.349944  2210 layer_factory.hpp:77] Creating layer drop7
I0114 13:31:01.349953  2210 net.cpp:86] Creating Layer drop7
I0114 13:31:01.349961  2210 net.cpp:408] drop7 <- fc7
I0114 13:31:01.349967  2210 net.cpp:369] drop7 -> fc7 (in-place)
I0114 13:31:01.350030  2210 net.cpp:124] Setting up drop7
I0114 13:31:01.350042  2210 net.cpp:131] Top shape: 50 4096 (204800)
I0114 13:31:01.350047  2210 net.cpp:139] Memory required for data: 343007600
I0114 13:31:01.350052  2210 layer_factory.hpp:77] Creating layer fc8
I0114 13:31:01.350065  2210 net.cpp:86] Creating Layer fc8
I0114 13:31:01.350071  2210 net.cpp:408] fc8 <- fc7
I0114 13:31:01.350080  2210 net.cpp:382] fc8 -> fc8
I0114 13:31:01.350401  2210 net.cpp:124] Setting up fc8
I0114 13:31:01.350415  2210 net.cpp:131] Top shape: 50 2 (100)
I0114 13:31:01.350419  2210 net.cpp:139] Memory required for data: 343008000
I0114 13:31:01.350428  2210 layer_factory.hpp:77] Creating layer fc8_fc8_0_split
I0114 13:31:01.350440  2210 net.cpp:86] Creating Layer fc8_fc8_0_split
I0114 13:31:01.350446  2210 net.cpp:408] fc8_fc8_0_split <- fc8
I0114 13:31:01.350455  2210 net.cpp:382] fc8_fc8_0_split -> fc8_fc8_0_split_0
I0114 13:31:01.350466  2210 net.cpp:382] fc8_fc8_0_split -> fc8_fc8_0_split_1
I0114 13:31:01.350575  2210 net.cpp:124] Setting up fc8_fc8_0_split
I0114 13:31:01.350590  2210 net.cpp:131] Top shape: 50 2 (100)
I0114 13:31:01.350596  2210 net.cpp:131] Top shape: 50 2 (100)
I0114 13:31:01.350601  2210 net.cpp:139] Memory required for data: 343008800
I0114 13:31:01.350606  2210 layer_factory.hpp:77] Creating layer accuracy
I0114 13:31:01.350617  2210 net.cpp:86] Creating Layer accuracy
I0114 13:31:01.350625  2210 net.cpp:408] accuracy <- fc8_fc8_0_split_0
I0114 13:31:01.350631  2210 net.cpp:408] accuracy <- label_data_1_split_0
I0114 13:31:01.350641  2210 net.cpp:382] accuracy -> accuracy
…
